Model: "sequential_6"
_________________________________________________________________
Layer (type)                 Output Shape              Param #   
=================================================================
conv2d_8 (Conv2D)            (None, 6, 6, 16)          131088    
_________________________________________________________________
max_pooling2d_9 (MaxPooling2 (None, 3, 3, 16)          0         
_________________________________________________________________
conv2d_9 (Conv2D)            (None, 2, 2, 32)          2080      
_________________________________________________________________
max_pooling2d_10 (MaxPooling (None, 1, 1, 32)          0         
_________________________________________________________________
global_average_pooling2d_6 ( (None, 32)                0         
_________________________________________________________________
dense_6 (Dense)              (None, 133)               4389      
=================================================================
Total params: 137,557
Trainable params: 137,557
Non-trainable params: 0
_________________________________________________________________